model_weights.npz (npz, 815126 bytes, 4 tensors)

W1 f8 [784, 128]
000000 96 fa 72 69 10 72 75 3f a0 43 ad df 7f 44 62 3f
       0.005235733136201978 0.0022299287351547764
000010 2d d9 0d 6d e7 86 79 bf 53 1c 58 e4 92 ef 5e bf
       -0.006232170112403329 -0.0018881735317124628
000020 25 96 5a 1c 60 c9 81 3f 7b 0e 24 62 e5 74 80 3f
       0.008684874406138363 0.008035461480637487
000030 e9 dd c7 7c fe ad 6e bf 8a 68 50 02 54 5f 91 bf
       -0.0037450762231363466 -0.016965210572472723
000040 3e 3d c9 13 7b b7 80 3f c7 15 ec 3a d0 c1 84 bf
       0.00816246179706914 -0.010135294721758904
000050 98 5c 4e 91 8d 9c 83 3f 23 fd 63 a1 89 d3 8a 3f
       0.009575944897547026 0.013098788488149332
000060 c3 88 b4 19 47 59 21 3f 24 06 7e cf 4c 32 94 bf
       0.00013236039090098157 -0.01972312942917233
000070 52 76 c7 75 39 88 87 3f 67 08 d5 81 79 77 81 bf
       0.011490296274980914 -0.008528661036170072
000080 ce d2 fc eb 0a 51 92 bf d5 c6 56 48 d2 8c 7e bf
       -0.017887278226413277 -0.007458516517930132
000090 52 80 9d 17 09 48 78 3f db 6d 9e d7 9e 28 79 bf
       0.005928073422040896 -0.006142254331190834
0000a0 76 81 15 30 b2 a6 96 3f 96 33 e9 92 61 1e 45 3f
       0.02212026995164381 0.0006444908556858416
0000b0 4f ff cd e4 74 5a 54 bf ac 3d 88 a8 9a 8a 7e 3f
       -0.0012422696629243617 0.007456401952836183
0000c0 db b5 40 af d8 26 6d 3f 31 2c ec a2 85 e0 87 3f
       0.0035585624809957145 0.011658710512639643
0000d0 0d ed 82 86 ee bc 76 3f 3a 36 f3 5b 58 fb 75 bf
       0.00555127309797433 -0.005366654542013511
0000e0 73 81 34 e9 60 7c 60 bf 87 0f 47 d4 18 79 7e 3f
       -0.0020124333183419384 0.007439705838297678
0000f0 51 a0 5c 8c f8 90 8f bf 34 61 fb c2 e9 97 41 bf
       -0.015413228782179685 -0.0005369082845972152
000100 d7 bc 5b 98 0a fd 63 3f ce bc f3 e3 2e d6 53 3f
       0.0024399954735297813 0.0012107332148010744
000110 23 da 2f 3c c5 28 61 bf b5 0e 4f b9 90 8d 7e bf
       -0.0020946361778400187 -0.007459225967014473
000120 d8 d3 24 12 32 2d 6d 3f b1 93 bd 99 ff 1b 60 3f
       0.00356158999889054 0.0019664756963941534
000130 a3 e2 ae 45 0a 40 8a bf cf 3f 11 d8 2b bc 80 bf
       -0.012817459346352427 -0.00817140820632281
000140 80 1f 87 7a de c9 91 bf 45 1c 02 ff 85 58 7a bf
       -0.017371631840233714 -0.006432078764311793
000150 6a 4c 42 69 66 0a 7a 3f 74 fd c5 08 8b 2b 92 bf
       0.006357574504494238 -0.017744228754506833
000160 de c9 6b c0 fd 29 63 bf ae 15 ba 23 9f c1 3f bf
       -0.00233935891025648 -0.00048456320994491153
000170 9f 01 bb f7 22 96 5d 3f 40 83 67 dc b5 0d 4f 3f
       0.0018058148843210565 0.0009476793282453336
000180 4c 9d 5a 6b be 91 78 bf 67 16 25 43 b6 40 62 3f
       -0.005998367143241378 0.0022281226930854106
000190 08 18 66 fc fa ab 80 bf da b2 fa 67 77 9d 82 3f
       -0.008140526607132173 0.009089405880638269
0001a0 ec 5f a8 85 99 1d 69 bf ac 91 f0 f7 13 9a 7b bf
       -0.0030658720472835823 -0.006738737108240061
0001b0 e7 33 14 d2 c6 4b 6c 3f 25 45 24 7c f6 f0 84 bf
       0.0034541018691300776 -0.010225225127700252
0001c0 bb ca 1b df b1 a5 91 3f 53 c9 01 01 5c f0 71 bf
       0.01723363804098697 -0.00437961520229842
0001d0 85 a7 28 f9 81 d2 5b bf 70 a5 8d 3e 2b df 7d bf
       -0.0016981381674079099 -0.007292908595311828
0001e0 90 36 cf 50 54 5f 63 bf 81 18 eb 8b 82 8a 94 bf
       -0.002364792517687793 -0.020059623517930895
0001f0 d7 f1 b1 77 42 82 89 bf 3f 62 38 5d c5 e7 55 bf
       -0.012455481794170815 -0.0013369967827029509
000200 3a d9 e7 19 e3 9b 84 3f ec 76 c2 97 6c f1 82 bf
       0.010062956073835328 -0.009249542599998738
000210 67 44 cc d3 ab 15 84 3f 68 33 d3 9b 65 9d 5b 3f
       0.009806959534701854 0.0016854755661370405
000220 5a 53 38 62 87 94 65 3f 89 5d 4f fb 87 d4 5c bf
       0.0026343006336539245 -0.0017596557565776347
000230 61 37 6e 08 fe 10 7b bf ec 83 54 5e 28 d6 7b bf
       -0.006608002010478704 -0.006796033563007047
000240 9f 25 c9 08 9b 26 91 3f 45 c1 6d 0d 81 36 83 3f
       0.016748831187475607 0.009381302091896368
000250 92 a0 b2 ed 69 fd 8d 3f 86 5f 20 c5 cc 27 71 3f
       0.014643504682979622 0.00418834675112823
000260 44 24 3b f4 ba b4 8f 3f 7e 7c a0 84 78 46 95 3f
       0.015481434419955538 0.02077663716783861
000270 7f fa e5 55 e8 7c 7e bf 3e a6 37 79 31 6d 6b 3f
       -0.007443339882569177 0.003347965839328975
000280 81 fa 64 7e 5a 54 72 bf 25 20 f0 57 3e ef 7e 3f
       -0.00447497700798627 0.007552379159285781
000290 6c 50 3c bf fd 24 59 3f d6 a9 31 19 cb f2 80 bf
       0.0015346982954201017 -0.00827559157024364
0002a0 1a 87 fb 9c 48 7d 77 3f f7 07 a4 e6 84 ec 96 bf
       0.005734714169848743 -0.022386623933023455
0002b0 9e a6 37 6f ba cc 89 bf 58 36 98 9d 0d b0 90 3f
       -0.012597519415936727 0.01629658960705735
0002c0 f1 fa 7e bc f0 55 8d 3f 5c 8f a8 a5 b3 5f 76 3f
       0.014324074509088432 0.005462362047669558
0002d0 db a5 74 1a 15 ef fc 3e be 8b c8 c9 8e 50 76 3f
       2.7593532334757114e-05 0.005447919622869555
0002e0 dc df 08 07 a2 0f 88 3f 5a 52 ce 46 42 dd 72 bf
       0.01174856742828461 -0.004605540173447576
0002f0 67 cc 55 90 df 3c 75 bf 15 26 a7 4a 32 6e 82 bf
       -0.005185006424073802 -0.008999245551325289
000300 d6 df 11 81 1b 8b 8c bf f8 2e 4e 3d 7e fb 63 3f
       -0.013937201382063263 0.00243925720355331
000310 1d 77 31 13 93 24 70 bf 14 17 e3 d6 6c df 73 3f
       -0.003941130172362664 0.004851746705929267
000320 57 4f b1 7f 03 e3 89 3f 1f 0e 2c bd 2b 75 63 3f
       0.0126400254577345 0.0023752073551592946
000330 77 4f 32 7d bc af 83 3f f8 46 31 44 98 c3 59 3f
       0.009612534113592848 0.0015725123382889766
000340 51 80 7d 39 1b 4b 64 3f 38 cc 53 5c ee ba 84 3f
       0.0024772197465808073 0.010122167770964294
000350 ca 01 e1 2b c6 22 77 bf 88 a5 d4 4c b5 82 93 3f
       -0.005648397547759429 0.019053299726839806
000360 3b d6 ae 51 dc ba 84 bf 59 10 a9 e1 47 68 41 3f
       -0.010122033350721362 0.0005312300666635669
000370 82 ff b7 a8 06 51 81 bf a5 5d 5d a0 3a 52 69 3f
       -0.00845532610310307 0.0030909676596981455
000380 4d b5 a1 c9 78 be 89 bf aa 0d 83 5a 0a 26 69 3f
       -0.012570327428160022 0.0030698969095241573
000390 f7 09 79 4d 4b 5a 83 3f d6 d0 dd 6c f4 a3 87 3f
       0.009449566175253372 0.01154318768724531
0003a0 77 80 7f 1a ff 31 81 3f 6e 4d 42 00 87 37 6d 3f
       0.008396142002254898 0.0035665165651807473
0003b0 04 6c 80 6e 92 4f 8c bf 48 de 2e c5 cd 64 8d bf
       -0.013823646542780572 -0.014352424221086527
0003c0 29 f7 ab dd db a0 5e bf 78 c7 41 78 ab e1 93 3f
       -0.0018694064262371835 0.019415549483205535
0003d0 77 d4 db 6a 9f 74 54 bf f2 7b cb f9 a9 61 86 bf
       -0.00124850814921487 -0.010928466735490947
0003e0 71 9c 3e 07 98 84 86 3f 40 5c 13 ef 93 f1 f3 be
       0.010995090218626853 -1.901975969506261e-05
0003f0 e8 76 35 c9 89 4e 96 3f 36 d3 42 9a 3b 87 57 3f
       0.021783974557698565 0.0014360506111589905
000400 f6 e7 e7 3b 93 b2 89 bf 98 b6 94 fb e2 a6 71 3f
       -0.01254763628547904 0.004309546138114982
000410 f1 e5 b7 c9 6c 56 70 bf a6 50 f7 89 83 d9 50 bf
       -0.003988671257951535 -0.0010284218368399683
000420 f2 f4 13 08 c9 df 89 3f 83 a2 9c 64 36 fe 82 bf
       0.01263386779691664 -0.009273934312276971
000430 a1 de 5e fa 75 c0 40 bf 3b 88 bb 7f 93 53 65 bf
       -0.0005112243713858053 -0.0026033287848443976
000440 e0 db 27 a5 e2 d6 8e bf 8c 88 95 ae cf 3a 83 3f
       -0.015058298745300236 0.009389517321953166
000450 49 56 eb f9 d0 62 89 bf c0 b4 e1 5c 18 6c f8 be
       -0.012395508410388294 -2.3290869471660714e-05
000460 4c cf c8 ab 91 c5 6d bf 7c 17 e7 0e af 67 80 bf
       -0.0036342473161087626 -0.008010261194509864
000470 08 51 e3 c5 de 79 87 bf c7 e6 b7 a8 68 c9 72 bf
       -0.011462917722760327 -0.004586609672964043
000480 77 5c 7b e8 a2 62 6f bf 6e ff 0c 04 88 4f 7b bf
       -0.003831213169046384 -0.006667643844423183
000490 d1 9e 75 8c 48 ec 6a bf ba 67 fe d9 68 0c 8b 3f
       -0.0032864968267637203 0.01320726313842956
0004a0 32 ca 62 e3 b0 7e 14 3f f8 0a f9 2d fd 28 97 bf
       7.818178787281289e-05 -0.022617298060377572
0004b0 77 8f 74 ec 4c 9d 69 3f df c9 5f 0c a8 c2 81 3f
       0.003126764527808075 0.008672058942441772
0004c0 3f 74 3f d9 32 57 6b 3f 03 20 09 6c 25 82 6c bf
       0.0033374779832074093 -0.0034800272844996995
0004d0 8a 71 aa 02 26 5f 66 bf de 76 72 1a d2 d9 87 bf
       -0.002730917204941179 -0.011645928794958346
0004e0 ea 83 c5 b7 ad 19 85 bf a8 77 2b a4 b1 72 79 bf
       -0.010302884264719443 -0.006212896262438074
0004f0 c9 3c 93 88 ad dc 67 3f 1a 89 e3 27 5f 00 72 3f
       0.0029128445936304798 0.0043948857330369465
000500 20 ba b4 4e 39 97 77 bf e0 1f 1c 59 ac 88 5e bf
       -0.005759452683646887 -0.0018636401259204335
000510 e0 a5 87 f2 97 8a 7f 3f 1a 9b 70 e5 f6 38 88 3f
       0.007700532478773309 0.011827401043843323
000520 5e a4 d5 19 6f 98 81 bf 0c 72 61 3f fe bd 86 3f
       -0.00859152600851781 0.01110457068369277
000530 17 bf 7a 6b 3c 3e 5d bf 88 e3 16 e0 b0 2f 4e bf
       -0.001784857753516838 -0.0009212125443617139
000540 7c 39 1b 20 ff 27 83 bf 01 0f a2 65 ca 49 79 bf
       -0.00935363117914955 -0.006173887837693349
000550 10 f3 ef d2 85 9d 8e bf 2e db 0a 71 06 4f 88 3f
       -0.014948888301654445 0.011869478535442814
000560 cf 69 59 d9 5a 0a 90 bf 50 aa b7 93 2b b6 5b bf
       -0.01566450072855635 -0.0016913819844101181
000570 ef 04 9d 6d 8c 25 84 3f a5 88 e9 c4 48 b7 8b bf
       0.009837243170866176 -0.013533180722508151
000580 e8 37 f0 e7 41 0d 92 bf d6 8c 99 5d a5 bc 7f bf
       -0.017628698140519733 -0.007748266181440052
000590 f8 b7 3e f2 10 d6 82 bf 57 65 4d 51 3b 38 6c bf
       -0.009197361366968679 -0.003444782118475469
0005a0 b3 bc 97 02 7d ea 86 bf 5f 03 f3 4b 60 37 5a 3f
       -0.011189438478110913 0.0016001167676195844
0005b0 1a af 26 8b 59 e0 7b bf 53 06 c4 d3 20 1f 79 3f
       -0.00680575349762671 0.006133201819694972
0005c0 7f 5e 1b 1b 90 a8 92 3f da da 13 d7 7a e9 73 bf
       0.018221141485666777 -0.0048613356059294625
0005d0 f3 3a 8b a1 d9 8c 2b 3f 88 a8 70 33 d7 11 78 bf
       0.00021019131306450992 -0.005876389149344637
0005e0 7b 36 2e fc 7f bb 63 3f 91 15 71 fb 51 15 93 3f
       0.0024087428768727027 0.018636017772470096
0005f0 f1 ac 6e 18 b4 1d 8b 3f 31 48 ec da c4 15 67 bf
       0.013240248675933293 -0.002817997439145813
000600 08 0c 2d d8 0a f9 36 3f 8d ca 26 68 ca 10 6a 3f
       0.00035053744084140347 0.003181834531653499
000610 cd 2c c8 79 1f da 92 bf 67 38 53 4c 71 73 53 bf
       -0.018410198028544756 -0.0011871916224666325
000620 81 da 05 f3 9a 7a 80 3f 3c 89 0b a1 36 76 5e 3f
       0.008046350995511322 0.001859238957131539
000630 29 e8 9d 8a 5f f6 8a 3f 7a 9c 82 89 fd d9 75 bf
       0.01316523210310912 -0.005334844951142443
000640 e7 e3 b7 5a e6 36 8b 3f f0 31 88 8c 51 32 3e bf
       0.013288306849959809 -0.0004607628912090258
000650 ed 52 05 e0 c6 15 95 bf e5 c0 92 15 96 d2 95 3f
       -0.020590884612221073 0.021311135355689088
000660 2e a0 2e 68 fe 0c 67 bf 9c cc 6d e7 62 cc 85 3f
       -0.002813813103291116 0.010643742263459814
000670 3a c0 d7 81 3b 40 7f 3f 5e d7 d3 d4 a5 1c 62 bf
       0.007629616212838692 -0.002210925950403216
000680 fe 0c 67 50 5c aa 97 bf 66 2d 38 19 4c 8b 93 bf
       -0.023110811622029985 -0.019086064376137378
000690 01 59 b7 98 e6 43 71 3f 73 a0 fe 69 c6 20 8d bf
       0.004215145843281088 -0.0142226697060581
0006a0 25 84 6e bb e8 64 68 3f 15 6d 69 8e 81 50 86 3f
       0.002977804713240067 0.010895740660251488
0006b0 0a b8 f1 ac df db 38 bf 36 a8 1b 27 69 c7 78 3f
       -0.0003793164332311921 0.006049547913542999
0006c0 55 a5 57 4f 9c 60 80 bf fe b3 d3 da d8 42 67 bf
       -0.007996770068489903 -0.002839492363469364
0006d0 91 af a0 50 42 95 70 bf 7c a0 4c e0 32 c8 70 bf
       -0.004048594515591379 -0.004097174391780919
0006e0 41 21 c4 db 03 3d 71 3f e4 a9 6e 4c d6 ca 76 bf
       0.004208579132189806 -0.00556453428627399
0006f0 a4 1f 58 62 49 76 8a 3f 7a ed db fa 18 28 90 3f
       0.012920926393249328 0.015777960120414637
000700 e3 96 2d 6b 71 02 4f bf fa d0 0b a7 36 11 90 3f
       -0.0009463361551353657 0.015690664239586184
000710 71 4d 51 ad 55 18 86 bf 8e 52 29 5d 65 58 79 3f
       -0.010788602210743932 0.006187816574840922
000720 6e 55 12 1a 9c ec 6b 3f 2d ba f6 79 aa e7 89 3f
       0.003408722769175191 0.01264889893249429
000730 f8 db 14 b2 e0 de 84 3f a7 05 28 c5 f7 13 82 bf
       0.01019073050939133 -0.008827148155435461
000740 fa 31 79 1c 81 17 73 bf 13 82 77 e9 88 f9 75 3f
       -0.0046610873610686224 0.005364928066655244
000750 c6 ee 58 38 36 37 90 3f 4f cd f0 e9 4d 4a 70 3f
       0.01583561629216381 0.0039771121510513005
000760 6c 05 d1 f8 15 c9 7e 3f e3 d2 6c ca 12 d4 70 bf
       0.007515989139450379 -0.004108498955976289
000770 f5 52 f1 4f 52 e6 70 3f 8f 40 b1 af c4 26 34 bf
       0.0041259017298968985 -0.00030748655234892006
000780 a2 af e3 57 2a 2b f2 be 3f ee ec 6b 2d f7 74 bf
       -1.7326941354519857e-05 -0.005118539264738652
000790 03 6b 2f c6 48 cb 8d 3f 5b 77 ca 4b 10 c1 80 3f
       0.01454789023221315 0.008180739701227393
0007a0 90 36 3f b3 be f2 62 bf 2e d8 a6 64 f8 3d 5a bf
       -0.0023130154240565484 -0.001601688929992583
0007b0 f6 56 d5 59 89 c7 86 bf fe ab 5c 19 ff 89 81 bf
       -0.011122773221966292 -0.008563988648878858
0007c0 1b ec 62 2b 60 25 77 bf 23 41 ba 68 d7 8b 93 bf
       -0.005650878583931119 -0.019088140265524644
0007d0 e2 ac 64 28 56 47 82 3f d8 cd b2 12 5f 3a 7b 3f
       0.0089251261784597 0.0066474641600282255
0007e0 72 96 49 2e 3e 5d 57 3f f1 9b d8 5a b3 68 87 3f
       0.0014260394319988404 0.0114301693057097
0007f0 be f1 4e be 45 0d 82 bf 88 6c 18 20 a6 4e 64 3f
       -0.008814377660990465 0.00247890898095943

b1 f8 [1, 128]
000000 1c e7 ce 89 ae e1 b7 3f 75 0c 60 5b da ea 9d 3f
       0.09328738083322857 0.02921620543203259
000010 38 93 d9 14 43 7b ab bf 45 f0 8a 6e 38 1d 45 bf
       -0.05367478971019185 -0.0006443524881301141
000020 91 46 20 05 c9 86 b7 bf 3b b3 b6 5a 83 f8 94 bf
       -0.0919004094614826 -0.020479252254222074
000030 08 43 83 f2 5c 69 6a bf ef 95 25 e2 6b 14 a5 bf
       -0.003224069154477486 -0.041171428066075204
000040 af 47 e5 ce 54 26 b4 3f f3 cb ed c5 ea 67 9a bf
       0.07870988894617768 -0.02578703721105664
000050 e6 5b 13 72 80 fe ac 3f 8a bf 20 c7 7e 89 b7 3f
       0.05662919418835326 0.0919417606498866
000060 38 2d 53 3b 63 3c b0 3f 16 d7 9e 97 92 b5 b0 3f
       0.06342144201623945 0.0652705784003412
000070 d7 08 0a 5a 26 04 63 bf 58 bb cd f6 77 3d 82 bf
       -0.002321314721769867 -0.008906304568623888
000080 cf 85 c9 2b 69 e0 9a 3f 06 ff 21 07 6a f4 8b 3f
       0.026246684358175728 0.013649776785541256
000090 91 32 14 b3 a6 0b 90 3f 1b 35 03 1f 03 b0 a4 3f
       0.015669445686443743 0.040405366454800716
0000a0 66 5e 04 ff a5 35 af bf 66 15 88 51 07 42 57 bf
       -0.06095617998124396 -0.001419551035838873
0000b0 7b 47 e7 0d b3 5c 77 3f d1 9c e3 25 60 a1 bf 3f
       0.005703639441394399 0.12355614590670717
0000c0 93 b9 15 ed fc b5 01 bf bb a0 89 c9 47 2b 82 3f
       -3.378084296455914e-05 0.008871613347949716
0000d0 51 31 5e f9 95 c5 7e bf ae a4 6c a9 d9 1b 71 3f
       -0.007512651287367626 0.004176950684987064
0000e0 87 02 7b 92 04 c3 b4 bf 39 a9 a3 b6 d3 f4 a6 3f
       -0.0811007363909174 0.044836631817661794
0000f0 e9 47 2b 37 55 01 a1 3f b3 58 b4 09 42 cb a0 bf
       0.03321329401445878 -0.03280073517287132
000100 0f fc 59 56 b3 75 45 bf 0b c1 56 eb cf 1a 47 bf
       -0.0006549001379453373 -0.0007051005583687276
000110 2d 01 85 35 09 19 8d 3f 06 eb c9 6e d2 42 b2 3f
       0.01420790857866957 0.07133212284854204
000120 2c 67 ee 58 51 93 b2 3f 9b 89 1e ec a5 4a 6e bf
       0.07256039067433723 -0.00369770437915058
000130 90 a2 61 72 2b a7 83 3f 79 93 af ed fc 0e 93 3f
       0.009596194675581843 0.01861186218947661
000140 cb 8a 2b 53 39 78 a5 bf b5 7b db 3d bf 41 b3 bf
       -0.04193286075839849 -0.0752219701785027
000150 a9 99 43 19 4b 2b 97 3f 08 6a 7d 31 69 6d 99 3f
       0.02262608854007345 0.024831432004569748
000160 31 58 8e b0 91 95 71 3f b7 40 f0 b0 07 c9 af bf
       0.004293030834466236 -0.062080612515388926
000170 00 78 3c 54 c0 10 ad 3f 0c ff 63 b3 1e 9b a5 3f
       0.056768427164783475 0.04219909610583103
000180 08 e1 76 7d 37 c8 bd 3f 1f da b8 21 3a 90 7e 3f
       0.11633631527991295 0.007461764409120635
000190 43 57 63 09 ad ef 8d 3f dc 06 77 43 ce 9a a6 3f
       0.014617301796913678 0.04414982389017805
0001a0 c4 e5 95 20 15 45 a1 bf b1 21 63 a2 da 34 a2 3f
       -0.03373018286488219 0.03555949432626749
0001b0 61 b3 e8 76 9d 58 96 3f 5b fc e8 77 25 e1 83 bf
       0.021822414763096435 -0.009706776353708138
0001c0 45 be 73 de f3 a1 9f 3f 12 f1 95 6b 27 9e 65 bf
       0.03089123769035342 -0.0026388902594459774
0001d0 a0 bb e0 77 78 83 9d 3f 2e ce 31 b7 c1 fc 9c 3f
       0.028821832958950133 0.028307940298374294
0001e0 52 a8 d7 50 ab a0 7b bf 1f ae 5b 3a 0e 70 a1 3f
       -0.006745022966677965 0.034058041213793404
0001f0 2b b3 fa fb 3d 5d ac bf 71 3e c5 ff 55 27 a5 3f
       -0.05539888096732278 0.041315734359724916
000200 3e 81 e9 8f 87 c5 79 3f c7 51 db c4 20 af 93 3f
       0.006291894473719415 0.019222747817211585
000210 8c 71 8b db 10 3c b8 3f 9b 0b e3 95 1b 51 83 3f
       0.09466653213480053 0.009432044517216734
000220 22 b1 8a 49 07 65 9a bf c7 fc bc 53 3b ae b1 3f
       -0.02577601801265062 0.06906481546774322
000230 e6 f6 bd 83 cc 34 a2 3f 2a 44 45 bc 26 b1 a9 3f
       0.03555907352618508 0.05017968223786114
000240 fa 03 c4 23 c9 ac 9f 3f d9 0f 29 8f a3 a3 ad 3f
       0.030932562644924368 0.05788909075320676
000250 e5 cc 8c 56 53 6e 65 bf 37 36 05 c1 54 4f 92 bf
       -0.002616083879183872 -0.017880749016788235
000260 d3 d1 b3 89 34 d3 91 bf 09 4e f4 39 27 1f a3 3f
       -0.01740724649876475 0.037347055267812186
000270 a3 c6 7e 2e 7c 1c 9a 3f b9 06 b2 e7 ba 37 91 3f
       0.025499286973803447 0.016814155952039587
000280 f4 df cf 70 f0 fb 9f bf 92 e0 bb ec f2 f3 65 bf
       -0.031234509358881682 -0.002679800474535262
000290 dc 1d e0 16 40 20 a4 3f 80 b6 f8 90 eb f0 39 3f
       0.03930855063668634 0.00039582968836069515
0002a0 f4 c0 14 4e 45 7f b2 3f da 1e 47 e1 71 6c a2 3f
       0.07225449711109261 0.035983618497594086
0002b0 e8 3e f5 d1 bc b6 b7 3f ca 0a b0 41 87 8a 71 3f
       0.09263210416724699 0.004282501550735682
0002c0 5e 91 eb b5 8f 0e b9 3f a3 27 7f ce f1 eb a8 3f
       0.09787843886767209 0.0486751141139188
0002d0 f9 96 a2 20 ee 1a 93 3f d6 69 a1 de fb c4 74 3f
       0.01865741800488416 0.00507067095358101
0002e0 23 60 ac 1f 3e d5 a6 3f f4 92 01 c0 88 25 98 3f
       0.04459566246640658 0.023580681532979278
0002f0 60 05 4b 63 81 c1 a3 3f 40 6c 61 1d 9a 44 83 3f
       0.03858570420335172 0.009408191701529955
000300 d1 d7 c3 d2 82 6f 8e 3f dc 66 11 e9 4a d5 a1 3f
       0.014861127907788959 0.034830418539696345
000310 3e a7 8b 27 cf 60 92 3f 77 81 7b 42 fb 5f 76 bf
       0.017947422779719384 -0.0054626288253704
000320 44 d1 a6 2c 3e 5f 7e 3f 4b 64 2b e8 d3 e7 95 3f
       0.007415049427823842 0.021392165227414755
000330 76 59 67 a5 24 30 a0 3f cf 52 e1 4a 2c 6d ad 3f
       0.03161730307663195 0.057473549023290375
000340 87 9c e0 1b bd 09 ac bf cc 02 7f a6 12 a2 81 3f
       -0.05476180043506767 0.008609910684641696
000350 19 8f 81 13 75 bd 8a 3f 69 50 d1 2f 82 f1 50 3f
       0.013056673677233331 0.0010341426234577128
000360 91 31 1d 4e 36 62 74 3f af 0e 75 79 2c 60 a2 3f
       0.004976474885392782 0.03588999731667052
000370 de cc f9 d2 24 33 b1 3f 0e 40 53 da 86 8f ab bf
       0.0671866431310266 -0.053829397345566674
000380 2e 38 59 90 83 7f a3 bf 52 3f d5 a1 70 f6 6e 3f
       -0.03808222901408019 0.0037796211096647126
000390 19 9b dc 4f 7e 17 98 3f 7c 87 d3 13 16 32 9e 3f
       0.023527120231984975 0.029487938842869252
0003a0 15 13 9f fa 68 01 a4 bf 5a 14 2b f7 c9 dc 8b bf
       -0.03907325801222875 -0.013604715209462426
0003b0 6c 6f 10 79 88 08 75 bf e1 5f da 23 4b a9 92 bf
       -0.005135090920727819 -0.018223928511900914
0003c0 c8 68 fb d9 05 39 a7 3f 5a 40 b6 3a ee ca b7 bf
       0.04535692487634574 -0.09294022496601553
0003d0 db b3 dc 22 bc 5b 81 3f 32 c0 d9 34 27 8d 80 3f
       0.008475751699359371 0.008081728268024422
0003e0 93 a3 48 cb bd a0 93 3f 64 f0 b9 b5 57 9f aa 3f
       0.01916786721463699 0.05199693768824501
0003f0 32 28 4e 9a c8 22 a9 bf 58 64 7d 93 c1 f5 7b bf
       -0.049093502842041295 -0.006826168209806381

W2 f8 [128, 10]
000000 3b d2 86 6c 43 aa bb bf 29 89 6d 82 68 b5 96 bf
       -0.10806676292015364 -0.022176392517743757
000010 b4 01 84 dc ff e3 ba 3f de cf e0 63 5f a5 bb 3f
       0.10504149564440618 0.10799213589126519
000020 93 b2 71 bc ab 69 a3 3f 32 bf ef 35 03 53 c6 3f
       0.03791557956069371 0.17440834172838887
000030 ab 98 9d 2d 4f a8 c5 bf 94 0f 6c 5a b2 fa 98 3f
       -0.16919889190029855 0.02439383198635843
000040 2a 8d 3a d1 d0 30 cb bf e6 61 8d d7 6c 2e a5 3f
       -0.21242723671194003 0.04136982089284284
000050 a7 8e 24 64 97 32 94 bf 19 75 d8 9d f3 5d 8a bf
       -0.019724240767699765 -0.012874511007846355
000060 58 7e 0f 7c d8 c4 c5 3f 04 ed 76 6f 16 20 89 3f
       0.17006975228922516 0.012268233563068616
000070 e9 c2 40 a8 22 5f a6 bf 6f 18 5a 5a 57 c2 b3 3f
       -0.04369457534665406 0.07718416171891972
000080 79 11 20 04 7f 06 ab bf 25 78 87 f7 15 9a be 3f
       -0.05278393674237498 0.11953866284554289
000090 93 89 96 21 09 20 bd bf 3b 3f bc 12 af a9 c1 bf
       -0.11377007551212719 -0.13799084105311885
0000a0 cc ed f5 10 90 a7 92 3f 1a b6 9a d8 ca 25 b7 bf
       0.01821732619781162 -0.0904204157656853
0000b0 7f eb 37 ae 4c 1a db 3f 9f 32 95 86 7e bc bf bf
       0.42348019612807514 -0.1239699438639925
0000c0 f5 41 f6 1b 2b 3d c6 bf a3 43 98 57 47 f2 cb bf
       -0.1737417112858705 -0.21833125855530708
0000d0 74 49 8d 2e 40 79 d9 3f e3 a9 06 ed 73 71 c5 bf
       0.3980255560501498 -0.16752480577026949
0000e0 d8 e9 39 1f 50 f9 ba 3f d5 c9 ec e4 4c ea c8 bf
       0.10536671411856646 -0.19465027978874497
0000f0 da 4f 3e e1 3f 31 ad 3f e4 6d 71 c8 03 06 8e bf
       0.057016369100125266 -0.014659909777200171
000100 e1 57 8d 80 fc f5 a1 bf e8 a1 00 49 cb 5f 74 3f
       -0.035079851810834624 0.004974168856314944
000110 03 60 98 cd 54 15 86 3f 01 4d b4 1e 29 40 93 bf
       0.010782873653667485 -0.01879944085983443
000120 85 96 63 c9 98 fc 8d 3f 9d 2c 97 0b ef 04 81 3f
       0.014641946454911245 0.008310191670622575
000130 93 ca ee cd 97 38 67 bf c5 e1 a7 49 56 33 8b bf
       -0.002834602826135077 -0.01328151142387036
000140 12 09 91 ca 08 55 c1 bf 83 fd 16 dc 7d 50 cd bf
       -0.13540754214233935 -0.22901890989849613
000150 13 7e aa 9e 8f 6f c7 3f 55 df 31 66 92 55 d1 3f
       0.18309207198488817 0.27084789257013614
000160 63 a9 d1 d0 04 2f bd bf 49 aa 9d 30 b0 07 b4 bf
       -0.11399870012397666 -0.0782423132601845
000170 05 aa a8 26 07 1a c6 bf f3 e4 9c 0f 4a 4c ca bf
       -0.17266930949820405 -0.2054531646952352
000180 d1 23 be b9 bc 91 c6 3f 4e 66 a4 fc 08 df d3 3f
       0.17632254666776118 0.310487982483754
000190 0c e9 f6 2e 9a fd ca bf 20 c6 b5 8d 69 95 90 bf
       -0.21086432736576233 -0.016194962763114273
0001a0 27 92 b5 b5 b6 6e c5 3f 73 fd 53 07 a3 80 df 3f
       0.1674412142994168 0.49222636905320555
0001b0 14 3e d3 90 99 f8 4b 3f b1 b3 d5 77 72 bf bc bf
       0.0008536100227959941 -0.11229625154164925
0001c0 51 e2 64 13 f6 96 d7 bf b8 f2 0f 2d 95 dc 50 3f
       -0.36858894247010193 0.0010291535184016442
0001d0 da b5 77 e0 34 be a3 bf e9 dc c1 ad f1 e6 b3 3f
       -0.03856053581317172 0.07774267665978453
0001e0 58 d2 8a 7f e5 5d db 3f e4 5d 54 ba 50 4f cc bf
       0.4276059861688615 -0.22117051218150074
0001f0 38 e7 23 3f a1 27 c8 bf fe 60 93 61 73 e9 9f bf
       -0.1887094076444613 -0.031163981276081103
000200 06 15 80 7e 3e 23 cc bf bd 92 37 03 6e ba cc 3f
       -0.21982556511662937 0.2244393840511715
000210 cf c6 0d 9a 34 4d 81 bf 47 2f 6d 59 33 70 c2 bf
       -0.00844803900847371 -0.14404909006622743
000220 d6 8b fd 2c c4 4a ca 3f ec ba 17 42 ed 67 b2 bf
       0.2054066867522965 -0.0718982969626542
000230 e1 fc 0b ca 08 9a bb bf c7 0a e3 76 14 af ba 3f
       -0.10781912739547607 0.10423400785934255
000240 e8 f7 67 ba 85 81 bd 3f a3 99 89 3a fe e2 cb bf
       0.11525760460787604 -0.21786477907444377
000250 cf 19 36 b6 07 e0 a9 3f 54 56 de 6f 37 5d c3 bf
       0.05053733920344749 -0.15128224336938223
000260 14 14 d8 08 3e 7f b1 3f 64 88 b2 6c 63 76 ba bf
       0.06834781375808091 -0.10336896327729189
000270 77 0e 8f 26 42 3d ca 3f 5b e7 06 f6 23 c4 9a 3f
       0.20499445803408253 0.026138841525358596
000280 5c 94 09 db 8f 0e c6 bf 15 de 39 be 1c 43 bb 3f
       -0.17231939501940274 0.1064928020876937
000290 b2 b2 0a 65 6e 6c d2 bf 2a 7c 69 eb d7 e1 82 bf
       -0.2878681170212004 -0.009219824668603566
0002a0 a6 34 a3 04 33 de bd 3f cc be 15 e2 a8 84 bc 3f
       0.1166717420885158 0.11139922637607497
0002b0 e8 cb db da 1b 3d b2 3f 20 6f e3 c2 fa ea 95 bf
       0.07124494641520551 -0.021404188294453452
0002c0 4a 60 9c ca d0 d1 b6 bf aa 2f 73 04 86 a6 c0 3f
       -0.08913903185418906 0.1300818940857174
0002d0 e8 98 bf 60 c0 78 d0 3f 4b 33 a6 60 2f 97 c8 bf
       0.25737008522118154 -0.19211380213928417
0002e0 50 a0 68 2e 88 08 d2 3f ea 9d 0b 52 90 06 b2 bf
       0.2817707493982242 -0.0704126549059009
0002f0 e3 84 0b 8c 37 a6 cb bf a4 45 25 28 c6 1b c8 bf
       -0.21601003969320862 -0.18834759674295498
000300 ae 81 4c df 97 3a cb 3f 4b 9a a3 de 03 b8 b2 bf
       0.21272562411560386 -0.07312034783863301
000310 cf 02 3a 2c db 11 a4 bf 77 64 33 eb 46 07 b0 3f
       -0.03919873156428865 0.06261103861051419
000320 c2 33 a1 21 54 0c c5 bf 38 ca 4d a1 d7 8a ba 3f
       -0.1644387401778698 0.10368106544573485
000330 64 63 ac dd 65 8b c3 3f 39 c7 d2 2b fa 6b cb 3f
       0.15269158672233651 0.2142327035886014
000340 01 bd 86 ea 55 3b bf bf 05 b9 43 60 ee c0 95 bf
       -0.12199913955440779 -0.02124378645469795
000350 75 7e a7 1e ed e9 ca 3f 38 52 1b c5 f6 08 9b 3f
       0.21026386257925692 0.0264013822369
000360 3c 63 dd a9 a5 28 cf bf a1 d5 6e f6 2f 60 c7 bf
       -0.2434279517572352 -0.18262290509089232
000370 04 32 19 60 30 25 d4 bf 57 b3 75 ad 76 d2 d0 bf
       -0.3147698343716743 -0.2628456777518315
000380 5d cf 46 18 4c 62 bf bf 26 39 60 c9 40 f2 ae bf
       -0.12259364693346471 -0.06044199426843226
000390 d3 a6 14 ed d5 eb e1 3f c8 f1 2c f9 96 e5 a0 3f
       0.5600385313493582 0.03300163070386791
0003a0 11 c5 cc 75 ad b1 dc bf b1 fb a4 24 b2 3e d0 3f
       -0.44834457878012396 0.25382665232239804
0003b0 36 60 31 f6 a2 32 be bf 85 f8 a0 74 49 ec de 3f
       -0.117960152726824 0.48317181005030135
0003c0 e7 b2 f4 5c 73 ca d3 3f 62 4f 99 eb 42 ff d2 bf
       0.30923160627098273 -0.2968299198885146
0003d0 1a 87 8f 0f 18 69 95 3f d6 4a 71 10 79 d5 d8 3f
       0.02090871424650862 0.38802935224263757
0003e0 79 2b 7f 0e c4 26 b5 bf e8 5a 68 d3 e0 eb ca 3f
       -0.08262276987004026 0.21032343218458682
0003f0 f5 5e 9d 83 62 59 aa bf 09 ed b0 17 bb c9 a3 bf
       -0.051463202062846415 -0.038648459093076744
000400 62 29 ef 40 7f d1 c9 bf 3a 57 81 da f0 ea cd bf
       -0.20170584364525285 -0.23373232526017224
000410 4c 85 d5 fc a9 1c ce bf 24 7d 3f d5 d1 e0 d8 3f
       -0.23524975629247036 0.38872190308571164
000420 9c af e4 12 84 a9 b6 bf 33 cf ce 08 cc 9b d2 3f
       -0.08852410756361312 0.29075909481183543
000430 e0 97 b1 f3 eb 16 b8 bf 2f ab 63 59 54 5e 85 bf
       -0.09409975719026376 -0.010433825471826445
000440 99 fa a7 24 2d 46 c8 bf 22 ad b6 f2 8b 0b ac 3f
       -0.18964161195613796 0.054775594118235085
000450 8b 58 5e 55 c8 41 70 bf 6d 36 cb be 48 c6 a7 bf
       -0.003968985130901835 -0.04643466309572095
000460 1f 76 2f 98 9f 4d 82 3f b2 f3 58 10 32 0d 84 bf
       0.00893711741621944 -0.00979079353703036
000470 25 c8 78 cc f9 d3 6e 3f a3 91 08 ee 1a 75 91 bf
       0.003763187301751197 -0.017048283365640803
000480 58 1b a6 2d 97 31 7a 3f 76 2c 48 f7 7a 0b 35 3f
       0.006394949474617238 0.0003211188516451588
000490 83 99 76 f0 90 22 79 3f fe da 42 06 cf 26 8c bf
       0.006136480492762056 -0.013745896700454004
0004a0 23 35 39 75 39 cf 80 3f 2d 27 71 da ae 4c 8f 3f
       0.008207749261738123 0.015282980004616665
0004b0 16 bd 0a 77 ac 14 8f bf fc 26 d7 87 21 93 b9 bf
       -0.015176150687095585 -0.09990129057328184
0004c0 a9 0c 80 ad 11 4a a2 3f d4 f8 b7 be 27 6b b6 3f
       0.03572135203287392 0.08757255941597758
0004d0 ed 66 fb cc 60 f5 c1 bf b0 8e 19 f8 e4 49 b8 bf
       -0.14030084618462216 -0.09487753922581521
0004e0 62 01 14 68 99 ef af 3f 84 52 03 72 21 9e c9 3f
       0.06237487216458494 0.2001382643417352
0004f0 32 75 dd d9 8f 41 a9 3f 82 ab c9 ff 1b e2 ba bf
       0.04932832273946487 -0.10501265520876582
000500 b2 81 4e f6 d6 e9 c2 bf c4 f9 99 e6 5e 5e a1 bf
       -0.14776122118656826 -0.03392311634978598
000510 59 01 ee 5f 90 a4 b1 3f 57 48 1e 0b 25 34 be bf
       0.06891729681047333 -0.11798316499178561
000520 f9 e5 8e 20 d5 2b d1 3f e2 ff dd 9c c0 57 8f bf
       0.2683003251982821 -0.015304093157965274
000530 f1 59 10 dd 4e 4f d4 3f 16 ec e4 50 7d e8 ba bf
       0.3173405798746947 -0.10511000847775195
000540 42 2a 9b 53 40 ba b8 bf f3 1b aa ed b8 46 c0 bf
       -0.09659196892895586 -0.12715827564917923
000550 6e f4 b5 f3 3c a2 82 3f 04 54 7d 33 65 81 a1 3f
       0.009098507106268108 0.03419033292326648
000560 4e 87 fd ec 5a 5e 93 3f a9 6c f3 dd 6a 73 87 bf
       0.018914623942129886 -0.011450610063937399
000570 61 4e fd 0e 08 18 a6 3f d2 c2 b1 e8 af a2 89 bf
       0.043152095632333916 -0.01251733235241784
000580 3a ee 70 56 38 e0 a2 bf 7a 71 4b eb a0 a8 aa bf
       -0.03686691336812627 -0.05206778404474029
000590 80 21 59 ea c2 05 ab bf 7f 14 c7 23 d6 2a bc 3f
       -0.05277833090491679 0.11002863286474172
0005a0 cf 1c cd f3 f9 0f d5 3f b8 19 c4 b9 e3 7c c1 bf
       0.32910012062752697 -0.13662382670027085
0005b0 d1 3a 1d a9 74 17 ba 3f fe ea 60 dc 6f cd a2 3f
       0.10192040566219453 0.03672360959213526
0005c0 23 09 16 a2 a7 b9 85 bf 9a 2b 4f 04 01 47 b2 3f
       -0.0106080147113557 0.07139593463140984
0005d0 c1 86 ef 0c 39 b9 b9 bf 80 dd 05 92 b0 ac b0 bf
       -0.1004825264531304 -0.06513503613483884
0005e0 aa 70 b3 25 84 b8 7a bf 2d d2 88 bc 85 e7 c5 bf
       -0.006523624611158999 -0.17112800317558322
0005f0 58 2e 55 ff 0e 41 a0 bf 55 1a 52 fe 5e f8 c6 3f
       -0.03174635760168759 0.17945468347552898
000600 53 20 06 3c e2 ec b8 3f 24 20 f3 f2 f8 7a b8 bf
       0.09736455884387966 -0.09562641078366646
000610 2f a9 3e 21 83 d8 b6 bf d0 7d 70 e1 f2 9e 9a 3f
       -0.08924121438636655 0.025996966371278962
000620 26 15 09 1c e7 7c 7f bf 58 0f f1 fe b3 19 92 3f
       -0.007687475940263233 0.01767617457905088
000630 d8 f0 54 62 59 e5 af bf e3 96 4f 25 7b e3 a8 bf
       -0.062296670201676896 -0.048610542587807413
000640 5d c1 ca 81 b9 95 d5 3f e4 df 6e 7a 13 25 b0 bf
       0.3372634665966155 -0.0630657361897416
000650 5f 11 f4 e8 03 85 a5 3f 53 07 f6 e5 c0 a6 bb bf
       0.04203045099896729 -0.10801320661815099
000660 d5 fb cd 33 8d c2 94 bf 6c 4b 39 a6 ae 67 d4 bf
       -0.020273405348685564 -0.31882826073449766
000670 a0 af e5 34 a3 19 96 3f af 77 57 f4 7f f3 b3 bf
       0.021582174399938148 -0.07793426242230227
000680 ba ae d4 67 c1 f2 8f 3f 5c 1d 16 c1 98 81 c9 3f
       0.015599738103069572 0.19926747730299155
000690 8e 66 14 31 d2 5c 61 bf a2 e0 6c 45 c1 76 90 3f
       -0.002119455843637769 0.016078014242538637
0006a0 3d 43 37 60 39 81 71 bf 0a d2 c0 1a 77 70 64 bf
       -0.0042736283534885984 -0.0024950338611466937
0006b0 90 e6 a7 c9 19 92 5b 3f 5a b7 59 04 69 d3 93 bf
       0.0016827823479829453 -0.01936115349820198
0006c0 f4 02 39 4a 98 58 72 3f 91 d3 bb a7 88 63 75 bf
       0.004479021914051574 -0.005221875962651349
0006d0 30 c6 62 9f c7 77 93 3f 09 8a 21 82 5e c3 6e bf
       0.019011611083163682 -0.0037552686563213683
0006e0 f3 ce 4e a2 16 6c c4 3f bf c9 8f dc a2 a7 b5 bf
       0.1595485966223503 -0.0845891750794072
0006f0 22 dd f0 9c 92 05 81 bf 3a 73 6d 2f 07 d8 a9 3f
       -0.008311410345511808 0.050476288356298984
000700 ae e5 ca 22 16 73 c3 bf be 9f f1 c9 5f 2d d0 3f
       -0.15194966029029672 0.2527694198711251
000710 e4 90 f6 bb 76 8d bd 3f 94 d4 6a 72 df ec d0 bf
       0.11543981636947681 -0.2644575707775598
000720 77 75 b3 93 fa c1 be 3f 65 19 a8 b2 6c fc c8 bf
       0.12014738183957784 -0.19520338748425128
000730 2f 26 48 42 c9 eb b6 3f f8 45 0b 16 4c 3e b7 bf
       0.08953531139572911 -0.09079433000740511
000740 58 66 b6 b5 f7 62 bc bf 8e 52 cd 80 52 f6 b3 bf
       -0.11088512598362266 -0.07797732967930868
000750 c3 9c 13 bd 3a c1 a4 3f e6 5b ff 60 a4 95 d3 3f
       0.040536723690644226 0.30600842926418037
000760 f9 16 47 a9 04 28 af 3f a0 89 cb af 6d 8b cb 3f
       0.06085218969705681 0.21519251903289405
000770 4d b0 77 8b 09 b9 cf bf 46 44 50 fa 3d 0c c9 bf
       -0.24783438978136232 -0.1956860992654887
000780 43 3b 4f 60 be 13 35 bf 77 5f c5 37 4c 70 98 bf
       -0.00032161138397850483 -0.023865881828299487
000790 31 58 ed 67 b8 b9 b1 3f e0 4e ff c9 86 8a a2 3f
       0.06924011742862103 0.03621312347209282
0007a0 af 32 eb cd ac 0d 9e bf 23 c0 20 d7 16 0d 95 bf
       -0.029349041050226784 -0.020557743912093095
0007b0 38 c3 92 9c 09 bf 74 bf c9 59 73 8e 37 28 96 3f
       -0.005065000100487542 0.02163779074620623
0007c0 0a 49 be e8 9a c1 8e bf c8 15 b2 ac 4b 2b 74 3f
       -0.01501770994926634 0.004924102405430238
0007d0 95 f6 be 19 84 8d b3 bf e5 54 91 dc 06 56 aa bf
       -0.07637811306536897 -0.0514375824210818
0007e0 c2 cc 0e 44 dd ed 95 bf 48 9b 54 b4 b4 7c cd 3f
       -0.021415192870063 0.2303682213325493
0007f0 b9 1b 13 e8 35 3e b8 bf 91 7f 07 e2 b0 11 d1 3f
       -0.09469925800213631 0.2667047698323524

b2 f8 [1, 10]
000000 47 9f f5 a6 a7 c8 ca bf ca f9 6a 86 79 74 ce 3f
       -0.2092485013229128 0.23792952597973588
000010 4e ce a3 61 30 ba a2 bf 3c 27 04 2c 7c 98 b4 bf
       -0.036576759261063616 -0.08045173716177784
000020 53 93 94 9a f2 69 ad 3f 3e 5e 91 ef 8a 91 d6 3f
       0.05744894158332294 0.35263322253510754
000030 ba f1 e3 f1 54 08 9d bf 1e fb 7a bc 31 d1 c7 3f
       -0.028352095855540084 0.186071602851336
000040 86 cb 68 e9 21 d9 dc bf 19 d5 f8 11 ec 63 9d bf
       -0.4507527140987623 -0.0287014852494468
